models/listen_to_me.tflite (tflite, 60968 bytes, 18 tensors)

tfl.pseudo_qconst1 i1 [1, 1088] scale=0.0009593456 zero_point=0
00000000: 1be5 fd0b b935 91d8 d5f5 8cfa 0503 b835
00000010: 37d4 efc5 c6f4 f860 f888 c994 f812 b528
00000020: e6e4 23d3 cc9d f332 a2ca a1da a0c3 09a9
00000030: 99bf 2b24 bda8 9107 cc97 82b3 acb8 58da
00000040: 9fba a4e9 81cd c6f5 ca00 b01f 29eb 0c22
00000050: 1fd0 0ad3 f9c3 ea36 b4c7 d0d8 14a9 b9d3
00000060: deae 40e7 03ab 9105 1ad6 f3a2 c3d2 2b96
00000070: b8e8 c520 9afe 9dd0 04c1 13a5 2ca6 17f4
00000080: f5b3 1096 d2f8 0eac d9ce 0fec 0f0e f43a
00000090: d3a0 e6e5 2d26 f05b baf4 cbf1 c70a 2831
000000a0: d6e7 2ff2 bea6 dad5 eec5 b1d9 bb9c b918
000000b0: 08f1 fc10 0917 f5f1 e3e0 cfc1 f0b3 f79c
000000c0: ec0e fba6 a2ed acac 009e eec9 b42b a61f
000000d0: ebc4 9baa b4ec 4d47 d112 16cb 3be9 f34d
000000e0: 0111 b2bd bae0 b258 9e0e 0d96 fe18 3edd
000000f0: 98a6 39d2 011a 2712 ec13 020b 18a9 3af6
0.02590233 -0.02590233 -0.0028780368 0.010552801 -0.068113536 0.050845318 -0.10648736 -0.038373824
-0.04125186 -0.010552801 -0.11128409 -0.0057560736 0.004796728 0.0028780368 -0.06907289 0.050845318
0.05276401 -0.042211205 -0.016308876 -0.05660139 -0.055642046 -0.011512147 -0.007674765 0.09209718
-0.007674765 -0.11512147 -0.05276401 -0.10360932 -0.007674765 0.017268222 -0.07195092 0.038373824
-0.024942987 -0.026861677 0.033577096 -0.043170553 -0.049885973 -0.09497522 -0.012471493 0.04796728
-0.09017849 -0.05180466 -0.091137834 -0.036455132 -0.09209718 -0.058520082 0.008634111 -0.083463065
-0.098812595 -0.062357463 0.04125186 0.034536444 -0.06427616 -0.08442241 -0.10648736 0.0067154192
-0.049885973 -0.10073129 -0.12087755 -0.07386961 -0.08058503 -0.06907289 0.08442241 -0.036455132
-0.09305652 -0.06715419 -0.088259794 -0.022064948 -0.12183689 -0.048926625 -0.055642046 -0.010552801
-0.05180466 0.0 -0.07674765 0.029739713 0.03933317 -0.020146258 0.011512147 0.03261775
0.029739713 -0.04604859 0.009593456 -0.043170553 -0.0067154192 -0.058520082 -0.021105602 0.05180466
-0.072910264 -0.054682698 -0.04604859 -0.038373824 0.019186912 -0.083463065 -0.068113536 -0.043170553
-0.03261775 -0.07866634 0.06139812 -0.02398364 0.0028780368 -0.08154438 -0.10648736 0.004796728
0.024942987 -0.040292516 -0.012471493 -0.09017849 -0.058520082 -0.044129897 0.04125186 -0.101690635
-0.06907289 -0.023024295 -0.05660139 0.03069906 -0.09785325 -0.0019186912 -0.09497522 -0.04604859
0.0038373824 -0.060438775 0.018227566 -0.08730045 0.042211205 -0.086341105 0.022064948 -0.011512147
-0.010552801 -0.07386961 0.01534953 -0.101690635 -0.044129897 -0.007674765 0.0134308385 -0.08058503
-0.03741448 -0.04796728 0.014390184 -0.019186912 0.014390184 0.0134308385 -0.011512147 0.055642046
-0.043170553 -0.09209718 -0.024942987 -0.02590233 0.043170553 0.036455132 -0.01534953 0.08730045
-0.06715419 -0.011512147 -0.050845318 -0.014390184 -0.054682698 0.009593456 0.038373824 0.047007933
-0.040292516 -0.02398364 0.045089245 -0.0134308385 -0.06331681 -0.086341105 -0.036455132 -0.04125186
-0.017268222 -0.05660139 -0.075788304 -0.03741448 -0.06619485 -0.09593456 -0.068113536 0.023024295
0.007674765 -0.014390184 -0.0038373824 0.01534953 0.008634111 0.022064948 -0.010552801 -0.014390184
-0.027821023 -0.03069906 -0.047007933 -0.060438775 -0.01534953 -0.07386961 -0.008634111 -0.09593456
-0.019186912 0.0134308385 -0.004796728 -0.086341105 -0.09017849 -0.018227566 -0.08058503 -0.08058503
0.0 -0.09401587 -0.017268222 -0.05276401 -0.072910264 0.04125186 -0.086341105 0.029739713
-0.020146258 -0.057560734 -0.09689391 -0.08250372 -0.072910264 -0.019186912 0.07386961 0.068113536
-0.045089245 0.017268222 0.021105602 -0.050845318 0.05660139 -0.022064948 -0.012471493 0.07386961
0.0009593456 0.016308876 -0.07482896 -0.06427616 -0.06715419 -0.03069906 -0.07482896 0.08442241
-0.09401587 0.0134308385 0.012471493 -0.101690635 -0.0019186912 0.023024295 0.059479427 -0.033577096
-0.09977195 -0.086341105 0.054682698 -0.044129897 0.0009593456 0.024942987 0.03741448 0.017268222
-0.019186912 0.018227566 0.0019186912 0.010552801 0.023024295 -0.083463065 0.055642046 -0.009593456

tfl.pseudo_qconst3 i1 [64, 1, 1, 64]
00000000: 4c8c a7dd 1466 3f37 112d 25d1 f417 0ca0
00000010: cabe 4e56 4113 9619 eb28 611e 38e4 2c32
00000020: bfe4 20a7 0437 ae29 3bc9 f6fe b333 a41c
00000030: 8f8f 9bbb 750e 7f68 ea6a 88c1 92d1 d702
00000040: bd22 5c27 b0b4 31c1 1cea 8b88 eec1 dc23
00000050: ebe2 05ea a9af 9ff9 4e4d ba9f d739 b04b
00000060: 095c b46b 4213 520f 1655 acda 3736 7ff0
00000070: ede7 619b 9305 e2bd 2dff af53 e6ce 579e
00000080: e047 c9a3 a2c6 7fb0 1425 caf8 f840 b13f
00000090: cc20 d841 be51 a959 f4f2 a74d 3f1e a642
000000a0: 0634 0ef6 d254 c505 07c9 41f9 53b6 270d
000000b0: a853 dff8 6572 1e45 1ee7 fa37 a50f 5652
000000c0: e9b3 edce dd58 d756 f003 7fb8 a7fb 87e3
000000d0: d4ce 4d50 c731 aecd 62a9 0c01 05ff e115
000000e0: 2f23 facb ca4c e5eb e94b 4f43 4bec cb17
000000f0: 4253 190a ba94 9d14 f1d8 b5d2 6695 10c9
76 -116 -89 -35 20 102 63 55
17 45 37 -47 -12 23 12 -96
-54 -66 78 86 65 19 -106 25
-21 40 97 30 56 -28 44 50
-65 -28 32 -89 4 55 -82 41
59 -55 -10 -2 -77 51 -92 28
-113 -113 -101 -69 117 14 127 104
-22 106 -120 -63 -110 -47 -41 2
-67 34 92 39 -80 -76 49 -63
28 -22 -117 -120 -18 -63 -36 35
-21 -30 5 -22 -87 -81 -97 -7
78 77 -70 -97 -41 57 -80 75
9 92 -76 107 66 19 82 15
22 85 -84 -38 55 54 127 -16
-19 -25 97 -101 -109 5 -30 -67
45 -1 -81 83 -26 -50 87 -98
-32 71 -55 -93 -94 -58 127 -80
20 37 -54 -8 -8 64 -79 63
-52 32 -40 65 -66 81 -87 89
-12 -14 -89 77 63 30 -90 66
6 52 14 -10 -46 84 -59 5
7 -55 65 -7 83 -74 39 13
-88 83 -33 -8 101 114 30 69
30 -25 -6 55 -91 15 86 82
-23 -77 -19 -50 -35 88 -41 86
-16 3 127 -72 -89 -5 -121 -29
-44 -50 77 80 -57 49 -82 -51
98 -87 12 1 5 -1 -31 21
47 35 -6 -53 -54 76 -27 -21
-23 75 79 67 75 -20 -53 23
66 83 25 10 -70 -108 -99 20
-15 -40 -75 -46 102 -107 16 -55

tfl.pseudo_qconst5 i1 [1, 23, 1, 64]
00000000: 8142 d41f 4c81 0caa 42d0 1c06 147f 1d23
00000010: c99d e006 6b45 2830 1681 81b8 0f31 7f76
00000020: ab24 262e 0966 7f2d 9a24 1c86 810e 7fc2
00000030: cbc0 d3ca dcd4 3101 d487 81a2 847f 7f62
00000040: 739c eab4 1c12 8136 04db b34a 06ff 3143
00000050: 8819 03a9 e7ef 7fcc 3009 bd2b caab 131b
00000060: b281 8134 e464 60da 06ff fdb6 16e7 ee90
00000070: 11d9 51d0 dcf9 7fea a6f3 20bd ed24 5046
00000080: 3c2d 682e 7ff0 d410 05ed 4f6a d62e f0e4
00000090: 1381 0ebf 6103 7011 1802 4b09 3bee bf3a
000000a0: c306 b4f8 6aeb ffb7 5203 2746 5881 ec90
000000b0: 81dc 07b6 df16 5e12 a5e1 dbdd 815d 1851
000000c0: 8cf9 7f57 72ef bd34 decf 957f 17f7 1d90
000000d0: f7f8 4a10 2e51 42b8 fcf0 3f3a 8ac0 1e6e
000000e0: 36fd e4b4 40e7 1c21 6534 0ea3 a6a6 a20a
000000f0: 17bb 5bff 2c15 e006 3b81 8196 0212 0734
-127 66 -44 31 76 -127 12 -86
66 -48 28 6 20 127 29 35
-55 -99 -32 6 107 69 40 48
22 -127 -127 -72 15 49 127 118
-85 36 38 46 9 102 127 45
-102 36 28 -122 -127 14 127 -62
-53 -64 -45 -54 -36 -44 49 1
-44 -121 -127 -94 -124 127 127 98
115 -100 -22 -76 28 18 -127 54
4 -37 -77 74 6 -1 49 67
-120 25 3 -87 -25 -17 127 -52
48 9 -67 43 -54 -85 19 27
-78 -127 -127 52 -28 100 96 -38
6 -1 -3 -74 22 -25 -18 -112
17 -39 81 -48 -36 -7 127 -22
-90 -13 32 -67 -19 36 80 70
60 45 104 46 127 -16 -44 16
5 -19 79 106 -42 46 -16 -28
19 -127 14 -65 97 3 112 17
24 2 75 9 59 -18 -65 58
-61 6 -76 -8 106 -21 -1 -73
82 3 39 70 88 -127 -20 -112
-127 -36 7 -74 -33 22 94 18
-91 -31 -37 -35 -127 93 24 81
-116 -7 127 87 114 -17 -67 52
-34 -49 -107 127 23 -9 29 -112
-9 -8 74 16 46 81 66 -72
-4 -16 63 58 -118 -64 30 110
54 -3 -28 -76 64 -25 28 33
101 52 14 -93 -90 -90 -94 10
23 -69 91 -1 44 21 -32 6
59 -127 -127 -106 2 18 7 52

tfl.pseudo_qconst7 i1 [64, 1, 1, 64]
00000000: 47ae 6602 9448 35f9 9e40 4033 ff69 52d8
00000010: a80c 2e4c 70da f2be 34b9 7223 9c54 b318
00000020: 00d1 d06a d564 22c5 d2ee f610 935f e6d2
00000030: 57ad dd9a e244 ec6d ab69 29fa ec7f 1efd
00000040: 1b5e cdcd b4f5 7f51 332e 2383 7503 b8b3
00000050: 35ec 6e0c 09fd facc 4c33 09d0 2dcb c684
00000060: eb55 20e3 0e78 5250 4aef bd93 713d b7b2
00000070: a06a 4149 9270 50cd 1afd f946 eb57 b60e
00000080: 02c7 52b4 3920 f10c 0966 070c 2636 31c4
00000090: 47a1 d178 da09 d7ca d86e 2586 af07 d90f
000000a0: 48f7 84ee dcc6 20e9 257f eef4 24af af1c
000000b0: dfbb 132b 56b0 946c 25d2 7c99 2f3d b97d
000000c0: 5285 e36d 632d bee5 2411 8143 cc15 0c10
000000d0: ba66 9e9c 75ff ca71 0c3a 1cbe ede4 39e1
000000e0: d90e 52d2 1b1a a02d 989f 6ade 130c 0fbe
000000f0: 33b9 5617 ec15 9d60 2c31 f493 fe75 143c
71 -82 102 2 -108 72 53 -7
-98 64 64 51 -1 105 82 -40
-88 12 46 76 112 -38 -14 -66
52 -71 114 35 -100 84 -77 24
0 -47 -48 106 -43 100 34 -59
-46 -18 -10 16 -109 95 -26 -46
87 -83 -35 -102 -30 68 -20 109
-85 105 41 -6 -20 127 30 -3
27 94 -51 -51 -76 -11 127 81
51 46 35 -125 117 3 -72 -77
53 -20 110 12 9 -3 -6 -52
76 51 9 -48 45 -53 -58 -124
-21 85 32 -29 14 120 82 80
74 -17 -67 -109 113 61 -73 -78
-96 106 65 73 -110 112 80 -51
26 -3 -7 70 -21 87 -74 14
2 -57 82 -76 57 32 -15 12
9 102 7 12 38 54 49 -60
71 -95 -47 120 -38 9 -41 -54
-40 110 37 -122 -81 7 -39 15
72 -9 -124 -18 -36 -58 32 -23
37 127 -18 -12 36 -81 -81 28
-33 -69 19 43 86 -80 -108 108
37 -46 124 -103 47 61 -71 125
82 -123 -29 109 99 45 -66 -27
36 17 -127 67 -52 21 12 16
-70 102 -98 -100 117 -1 -54 113
12 58 28 -66 -19 -28 57 -31
-39 14 82 -46 27 26 -96 45
-104 -97 106 -34 19 12 15 -66
51 -71 86 23 -20 21 -99 96
44 49 -12 -109 -2 117 20 60

tfl.pseudo_qconst9 i1 [1, 15, 1, 32]
00000000: 7fc9 57b5 4913 175d 49cc fa22 4bcc 799c
00000010: 7f87 e852 c1a3 7fc5 1d81 f385 7009 067e
00000020: 7b16 5b4d 7fa4 f233 7fb2 0e41 61ca 7f21
00000030: 792b 39d8 1581 7219 c19a ea88 4cb4 67e0
00000040: 3681 7f81 4739 55fc f44b f059 3019 33c4
00000050: a0af 6b5e 56d5 ebdd 27dd dfa9 d982 7f76
00000060: 95c9 c663 04e3 f918 4617 fb9f 7ba2 e0b7
00000070: 2d8f bed6 eed5 a3ef dc4c 26f8 6e47 ff59
00000080: b130 10d7 1d57 291b 39ec 7f66 7881 6ff4
00000090: fcb5 d5f1 dedf d341 22af c5c8 dfc6 38c7
000000a0: 45b1 6546 6364 b7f9 02f2 08c9 999b 3fa5
000000b0: 2dd5 c3f8 3600 ed6d e322 b238 fea6 562e
000000c0: 25ac 170c 43c3 96bc f53e bdb9 88e6 5fc0
000000d0: 98f0 54fe 16b8 9ed3 8151 7fae 3081 8ef4
000000e0: b3ec cec4 da0a 2e9f 3f1f d3b7 5063 6cbe
000000f0: 52cf fcc1 f1a7 d351 858b 5d53 6b5e 36e9
127 -55 87 -75 73 19 23 93
73 -52 -6 34 75 -52 121 -100
127 -121 -24 82 -63 -93 127 -59
29 -127 -13 -123 112 9 6 126
123 22 91 77 127 -92 -14 51
127 -78 14 65 97 -54 127 33
121 43 57 -40 21 -127 114 25
-63 -102 -22 -120 76 -76 103 -32
54 -127 127 -127 71 57 85 -4
-12 75 -16 89 48 25 51 -60
-96 -81 107 94 86 -43 -21 -35
39 -35 -33 -87 -39 -126 127 118
-107 -55 -58 99 4 -29 -7 24
70 23 -5 -97 123 -94 -32 -73
45 -113 -66 -42 -18 -43 -93 -17
-36 76 38 -8 110 71 -1 89
-79 48 16 -41 29 87 41 27
57 -20 127 102 120 -127 111 -12
-4 -75 -43 -15 -34 -33 -45 65
34 -81 -59 -56 -33 -58 56 -57
69 -79 101 70 99 100 -73 -7
2 -14 8 -55 -103 -101 63 -91
45 -43 -61 -8 54 0 -19 109
-29 34 -78 56 -2 -90 86 46
37 -84 23 12 67 -61 -106 -68
-11 62 -67 -71 -120 -26 95 -64
-104 -16 84 -2 22 -72 -98 -45
-127 81 127 -82 48 -127 -114 -12
-77 -20 -50 -60 -38 10 46 -97
63 31 -45 -73 80 99 108 -66
82 -49 -4 -63 -15 -89 -45 81
-123 -117 93 83 107 94 54 -23

tfl.pseudo_qconst11 i1 [1, 9, 1, 32]
00000000: de4d 4cdf ae1f 4c2f 7f60 165c f0fb dd1a
00000010: 1186 8159 21d1 cd2f cd81 2a16 4939 482b
00000020: 59e9 1abd 9cbb 4a7f 2518 c88b 1f7f 32de
00000030: bb63 e181 81fe c641 0acc e402 048a a387
00000040: c01a 3d00 62ec b930 cbd4 e546 606a c2fa
00000050: dca6 35b1 4751 cde1 d10e 65a0 ef3f 2ff3
00000060: 8145 3ae5 81e8 e8ae 4b68 2534 9601 f276
00000070: df37 2e24 eac2 55b8 d9c9 811e ada0 a57b
00000080: cb6f 812b 204d c416 20ca f975 817b 35fd
00000090: 38fe 0bd2 e0d5 abac 0608 63bf 015d be47
000000a0: 018a 1633 d7bc 0fca 4287 2c7f f097 7f2e
000000b0: 7fca 4fa5 674c 4a3c 36c3 447f 99f1 facb
000000c0: fe06 c754 213c eda8 2455 2984 d4cf eec3
000000d0: d88e d4b7 287f 0f6b 7f8b 02d7 81b5 e848
000000e0: a181 2cf5 07b1 7f16 1581 28e0 731b 7c81
000000f0: 6302 a150 4143 8185 56d0 367c ed88 cfa0
-34 77 76 -33 -82 31 76 47
127 96 22 92 -16 -5 -35 26
17 -122 -127 89 33 -47 -51 47
-51 -127 42 22 73 57 72 43
89 -23 26 -67 -100 -69 74 127
37 24 -56 -117 31 127 50 -34
-69 99 -31 -127 -127 -2 -58 65
10 -52 -28 2 4 -118 -93 -121
-64 26 61 0 98 -20 -71 48
-53 -44 -27 70 96 106 -62 -6
-36 -90 53 -79 71 81 -51 -31
-47 14 101 -96 -17 63 47 -13
-127 69 58 -27 -127 -24 -24 -82
75 104 37 52 -106 1 -14 118
-33 55 46 36 -22 -62 85 -72
-39 -55 -127 30 -83 -96 -91 123
-53 111 -127 43 32 77 -60 22
32 -54 -7 117 -127 123 53 -3
56 -2 11 -46 -32 -43 -85 -84
6 8 99 -65 1 93 -66 71
1 -118 22 51 -41 -68 15 -54
66 -121 44 127 -16 -105 127 46
127 -54 79 -91 103 76 74 60
54 -61 68 127 -103 -15 -6 -53
-2 6 -57 84 33 60 -19 -88
36 85 41 -124 -44 -49 -18 -61
-40 -114 -44 -73 40 127 15 107
127 -117 2 -41 -127 -75 -24 72
-95 -127 44 -11 7 -79 127 22
21 -127 40 -32 115 27 124 -127
99 2 -95 80 65 67 -127 -123
86 -48 54 124 -19 -120 -49 -96

tfl.pseudo_qconst13 i1 [64, 1, 1, 64]
00000000: b109 bca6 5b7f afe1 b7c2 2535 d9ee b14e
00000010: 26cd c745 3747 d425 c607 39ac d033 622e
00000020: 55d5 0303 c038 7da0 e65c 0edb 4d0a 225d
00000030: 17d1 34f1 1eb1 6a0f 64c9 dbfe e7d7 2344
00000040: 65a5 9111 5204 de9a 032e 1d81 40a8 c34b
00000050: 57bc c514 bbf5 3edb 1034 5245 4129 0549
00000060: a465 ba02 2464 8f53 085a 6b65 d498 f2cf
00000070: 6f5a de63 623f 00ec 4be0 2600 41e6 ec92
00000080: f8a3 53a8 d7ba 4d4e e40c 50ec 6bc6 9bab
00000090: 0997 dce4 4d7f 04bb 9d94 a231 33d8 bca1
000000a0: 4974 39bf d868 641a bc5f 91b5 3669 1797
000000b0: 99b1 114b e4e7 349d a3d2 d799 f7d6 8b9f
000000c0: f235 9b7a 2e31 7fd2 8306 d88d 64a2 28a6
000000d0: 99ca e9d3 2bc4 1f5a e42f a8c2 7716 0ba5
000000e0: 94f2 1c0a c60e 1992 9950 1550 a914 5319
000000f0: 4923 d234 20f6 cd2d cef8 8c6c 7730 d172
-79 9 -68 -90 91 127 -81 -31
-73 -62 37 53 -39 -18 -79 78
38 -51 -57 69 55 71 -44 37
-58 7 57 -84 -48 51 98 46
85 -43 3 3 -64 56 125 -96
-26 92 14 -37 77 10 34 93
23 -47 52 -15 30 -79 106 15
100 -55 -37 -2 -25 -41 35 68
101 -91 -111 17 82 4 -34 -102
3 46 29 -127 64 -88 -61 75
87 -68 -59 20 -69 -11 62 -37
16 52 82 69 65 41 5 73
-92 101 -70 2 36 100 -113 83
8 90 107 101 -44 -104 -14 -49
111 90 -34 99 98 63 0 -20
75 -32 38 0 65 -26 -20 -110
-8 -93 83 -88 -41 -70 77 78
-28 12 80 -20 107 -58 -101 -85
9 -105 -36 -28 77 127 4 -69
-99 -108 -94 49 51 -40 -68 -95
73 116 57 -65 -40 104 100 26
-68 95 -111 -75 54 105 23 -105
-103 -79 17 75 -28 -25 52 -99
-93 -46 -41 -103 -9 -42 -117 -97
-14 53 -101 122 46 49 127 -46
-125 6 -40 -115 100 -94 40 -90
-103 -54 -23 -45 43 -60 31 90
-28 47 -88 -62 119 22 11 -91
-108 -14 28 10 -58 14 25 -110
-103 80 21 80 -87 20 83 25
73 35 -46 52 32 -10 -51 45
-50 -8 -116 108 119 48 -47 114

tfl.pseudo_qconst15 i1 [1, 11, 1, 32]
00000000: b0fa 81fa 895d a3cc c401 1815 3f50 25f1
00000010: 1f23 eff7 7f8d 7f71 4b36 1f7f 7d81 7306
00000020: d56a 567f 46ba 909d ccde 49b7 ca7c ebe1
00000030: 922b 13fd 160a ca04 0e0a 7f26 c08b 0dfc
00000040: 81ad e15e 0c2a 2ed2 bd81 6744 7661 b138
00000050: 18e6 81e7 2d81 2960 7ffb 1d4e 3fbe 3c88
00000060: bd10 a667 70c4 1de4 d4c5 b600 d853 1fec
00000070: bb4c b96e 282a 494c 2b0a 3d13 4214 b788
00000080: 8fbd 10d9 ddbd ef7f f95d e40a 651e d140
00000090: 497b 0524 ae49 c163 2c81 42cf 7fc2 81c6
000000a0: a01a 9401 8152 dadb 4150 28d9 be2d 067c
000000b0: 127f 3e7f 22ca 572b 0e32 e456 6814 6d2d
000000c0: 449b 63b7 6c81 17ac bd0e 817f 2a57 0d2d
000000d0: 9c39 1ec9 201f ce62 9da7 ac28 4ab6 6fc5
000000e0: 0e9d b4f9 48f6 d84f a133 fc03 81f1 0c1d
000000f0: 7f1d 9a16 88aa 387f bc38 aab8 94ff d51d
-80 -6 -127 -6 -119 93 -93 -52
-60 1 24 21 63 80 37 -15
31 35 -17 -9 127 -115 127 113
75 54 31 127 125 -127 115 6
-43 106 86 127 70 -70 -112 -99
-52 -34 73 -73 -54 124 -21 -31
-110 43 19 -3 22 10 -54 4
14 10 127 38 -64 -117 13 -4
-127 -83 -31 94 12 42 46 -46
-67 -127 103 68 118 97 -79 56
24 -26 -127 -25 45 -127 41 96
127 -5 29 78 63 -66 60 -120
-67 16 -90 103 112 -60 29 -28
-44 -59 -74 0 -40 83 31 -20
-69 76 -71 110 40 42 73 76
43 10 61 19 66 20 -73 -120
-113 -67 16 -39 -35 -67 -17 127
-7 93 -28 10 101 30 -47 64
73 123 5 36 -82 73 -63 99
44 -127 66 -49 127 -62 -127 -58
-96 26 -108 1 -127 82 -38 -37
65 80 40 -39 -66 45 6 124
18 127 62 127 34 -54 87 43
14 50 -28 86 104 20 109 45
68 -101 99 -73 108 -127 23 -84
-67 14 -127 127 42 87 13 45
-100 57 30 -55 32 31 -50 98
-99 -89 -84 40 74 -74 111 -59
14 -99 -76 -7 72 -10 -40 79
-95 51 -4 3 -127 -15 12 29
127 29 -102 22 -120 -86 56 127
-68 56 -86 -72 -108 -1 -43 29

tfl.pseudo_qconst17 i1 [1, 7, 1, 32]
00000000: b0fa 6adf 7f29 2fbf face 143b 81b2 5bcb
00000010: 149c 8177 856e 1b2d d339 81ae 7f8d 7f36
00000020: 0981 677f 22d4 f2a0 18a0 037f 687f 1343
00000030: 7e81 97ba e70b 9d03 cb59 9aef 9968 ccbd
00000040: a155 e010 41b1 7fb0 81d2 a7f2 6526 8159
00000050: 530f c29e 8191 7817 8131 fc55 78ea 691e
00000060: f93a 4149 9b62 83a9 2861 8c1c 0c74 1b48
00000070: 7f02 4d60 67c5 d53e eae3 e3e3 eb7f 922d
00000080: 6fdc dcb9 b8ae da31 6fff 5c3a 6269 419f
00000090: 8bd3 546b e717 8181 d87f 3381 ab43 96cf
000000a0: 81a5 7f11 2bc5 95a0 0fc0 7fe6 ae0a 887f
000000b0: 45b5 02ad ad7f 87a8 afce a35f 5941 ba11
000000c0: c37a c385 f381 ab7f 5f7f db99 6a1a e3b0
000000d0: 1d02 697f ae78 c527 1166 62c2 a8ab 4c81
-80 -6 106 -33 127 41 47 -65
-6 -50 20 59 -127 -78 91 -53
20 -100 -127 119 -123 110 27 45
-45 57 -127 -82 127 -115 127 54
9 -127 103 127 34 -44 -14 -96
24 -96 3 127 104 127 19 67
126 -127 -105 -70 -25 11 -99 3
-53 89 -102 -17 -103 104 -52 -67
-95 85 -32 16 65 -79 127 -80
-127 -46 -89 -14 101 38 -127 89
83 15 -62 -98 -127 -111 120 23
-127 49 -4 85 120 -22 105 30
-7 58 65 73 -101 98 -125 -87
40 97 -116 28 12 116 27 72
127 2 77 96 103 -59 -43 62
-22 -29 -29 -29 -21 127 -110 45
111 -36 -36 -71 -72 -82 -38 49
111 -1 92 58 98 105 65 -97
-117 -45 84 107 -25 23 -127 -127
-40 127 51 -127 -85 67 -106 -49
-127 -91 127 17 43 -59 -107 -96
15 -64 127 -26 -82 10 -120 127
69 -75 2 -83 -83 127 -121 -88
-81 -50 -93 95 89 65 -70 17
-61 122 -61 -123 -13 -127 -85 127
95 127 -37 -103 106 26 -29 -80
29 2 105 127 -82 120 -59 39
17 102 98 -62 -88 -85 76 -127

tfl.pseudo_qconst19 i1 [64, 1, 1, 32]
00000000: 980b 16f3 be3a 3743 2867 e09f 4da6 de11
00000010: ddb3 59f3 e164 081d 37e5 03b3 982c 81fb
00000020: f05f 5922 f769 853d 995c 78cc 8106 7417
00000030: fcfe f3ce 9513 6bf5 a3c0 5a52 5402 323e
00000040: b124 f61a 462f c2be c971 4402 b973 9750
00000050: 4f9e 21b4 341e 33f2 061e 513f ace5 627f
00000060: f2a1 16be 1dcc df14 c935 4d31 9e81 9df7
00000070: a345 1f56 e0df b812 ab9a 242a b3df 74ae
00000080: b9dc e953 c243 42d0 8d0c 94a7 c68b 1381
00000090: d7de 3c18 2915 0e08 d51d 0666 32bb bb4d
000000a0: 4424 4e38 e219 a0b5 ee32 4135 4d1a 43fa
000000b0: 1f0f 25e2 9f81 21db 2400 35e6 31d4 0b48
000000c0: 00ff b592 eb9a 67b6 0c01 d2e7 4668 a7b9
000000d0: 3341 d81c 3d5e 5c7f 3113 bfc3 42ab 6585
000000e0: 20a7 7827 e89d 66a8 7f8a 8384 77ce df95
000000f0: 0450 7081 68c5 fb8f 4fd5 acb3 0d74 fde6
-104 11 22 -13 -66 58 55 67
40 103 -32 -97 77 -90 -34 17
-35 -77 89 -13 -31 100 8 29
55 -27 3 -77 -104 44 -127 -5
-16 95 89 34 -9 105 -123 61
-103 92 120 -52 -127 6 116 23
-4 -2 -13 -50 -107 19 107 -11
-93 -64 90 82 84 2 50 62
-79 36 -10 26 70 47 -62 -66
-55 113 68 2 -71 115 -105 80
79 -98 33 -76 52 30 51 -14
6 30 81 63 -84 -27 98 127
-14 -95 22 -66 29 -52 -33 20
-55 53 77 49 -98 -127 -99 -9
-93 69 31 86 -32 -33 -72 18
-85 -102 36 42 -77 -33 116 -82
-71 -36 -23 83 -62 67 66 -48
-115 12 -108 -89 -58 -117 19 -127
-41 -34 60 24 41 21 14 8
-43 29 6 102 50 -69 -69 77
68 36 78 56 -30 25 -96 -75
-18 50 65 53 77 26 67 -6
31 15 37 -30 -97 -127 33 -37
36 0 53 -26 49 -44 11 72
0 -1 -75 -110 -21 -102 103 -74
12 1 -46 -25 70 104 -89 -71
51 65 -40 28 61 94 92 127
49 19 -65 -61 66 -85 101 -123
32 -89 120 39 -24 -99 102 -88
127 -118 -125 -124 119 -50 -33 -107
4 80 112 -127 104 -59 -5 -113
79 -43 -84 -77 13 116 -3 -26

tfl.pseudo_qconst21 i1 [1, 5, 1, 32]
00000000: 5f15 351c 4433 0d08 5748 2e5e c67f b8e8
00000010: 757f 81b9 8401 8d62 8157 8181 eb81 4346
00000020: 7f35 df3e 6457 f9fb a75d 590a 110a 7f2e
00000030: 7f2d abe5 4e7f 9013 ba7f 8ee5 c250 3179
00000040: 3781 e8f3 2cab 4f46 8181 c77f 16ab 427f
00000050: a970 cfe5 7110 7f81 d6d5 a32b aa34 7ff7
00000060: 22e3 811b 6c08 e3ea 7717 5266 7fce 3358
00000070: 950b 57a9 7f4f f4c1 33d1 4f36 81f6 5081
00000080: 4d57 c481 7f81 7f81 c1e0 81d5 922e 0c58
00000090: f3fe 2281 7659 210f 21ad 35d6 b097 f739
95 21 53 28 68 51 13 8
87 72 46 94 -58 127 -72 -24
117 127 -127 -71 -124 1 -115 98
-127 87 -127 -127 -21 -127 67 70
127 53 -33 62 100 87 -7 -5
-89 93 89 10 17 10 127 46
127 45 -85 -27 78 127 -112 19
-70 127 -114 -27 -62 80 49 121
55 -127 -24 -13 44 -85 79 70
-127 -127 -57 127 22 -85 66 127
-87 112 -49 -27 113 16 127 -127
-42 -43 -93 43 -86 52 127 -9
34 -29 -127 27 108 8 -29 -22
119 23 82 102 127 -50 51 88
-107 11 87 -87 127 79 -12 -63
51 -47 79 54 -127 -10 80 -127
77 87 -60 -127 127 -127 127 -127
-63 -32 -127 -43 -110 46 12 88
-13 -2 34 -127 118 89 33 15
33 -83 53 -42 -80 -105 -9 57

tfl.pseudo_qconst23 i1 [32, 5, 1, 40]
00000000: b479 06c8 aa43 33d2 f4c2 1ee4 dae9 b7c8
00000010: db16 9fef accd f1c9 d7ac a999 a5c7 0be8
00000020: cd44 8ade a7db a6ae 0247 9a30 d90f c9ee
00000030: 90e3 0e24 8e5f 90f0 c2b2 b31c a807 dfb6
00000040: f0a5 dcb7 0d2f dec7 f1f4 bce5 d966 b1dc
00000050: ca4e 0158 d8fd c33f 0bd7 b302 bdee e017
00000060: fbb9 ede3 d4cf 1e28 fa01 eabd a740 aa01
00000070: 0a3f 1f43 bd48 27da bc36 a940 f65f b525
00000080: ae18 ea5f 4e23 ce6f c4d9 93e7 23d3 af46
00000090: d545 2e53 2b29 04fb c832 e131 fe2f 44e5
000000a0: 81f4 f241 a520 e5fa 09fd 05ef 2541 f9fe
000000b0: d103 0b67 a36e 2b41 cc19 293d 1d45 40fd
000000c0: c046 3c21 d460 3f07 6217 ccb3 5037 b90c
000000d0: 07e6 f19a dcca 033a fde1 3fc5 3f2b f4f3
000000e0: f4be 360e b1a7 e1db dc2a 9d16 f5e5 f026
000000f0: 0621 121d d20f b045 1bd3 c216 3adc e922
-76 121 6 -56 -86 67 51 -46
-12 -62 30 -28 -38 -23 -73 -56
-37 22 -97 -17 -84 -51 -15 -55
-41 -84 -87 -103 -91 -57 11 -24
-51 68 -118 -34 -89 -37 -90 -82
2 71 -102 48 -39 15 -55 -18
-112 -29 14 36 -114 95 -112 -16
-62 -78 -77 28 -88 7 -33 -74
-16 -91 -36 -73 13 47 -34 -57
-15 -12 -68 -27 -39 102 -79 -36
-54 78 1 88 -40 -3 -61 63
11 -41 -77 2 -67 -18 -32 23
-5 -71 -19 -29 -44 -49 30 40
-6 1 -22 -67 -89 64 -86 1
10 63 31 67 -67 72 39 -38
-68 54 -87 64 -10 95 -75 37
-82 24 -22 95 78 35 -50 111
-60 -39 -109 -25 35 -45 -81 70
-43 69 46 83 43 41 4 -5
-56 50 -31 49 -2 47 68 -27
-127 -12 -14 65 -91 32 -27 -6
9 -3 5 -17 37 65 -7 -2
-47 3 11 103 -93 110 43 65
-52 25 41 61 29 69 64 -3
-64 70 60 33 -44 96 63 7
98 23 -52 -77 80 55 -71 12
7 -26 -15 -102 -36 -54 3 58
-3 -31 63 -59 63 43 -12 -13
-12 -66 54 14 -79 -89 -31 -37
-36 42 -99 22 -11 -27 -16 38
6 33 18 29 -46 15 -80 69
27 -45 -62 22 58 -36 -23 34

tfl.pseudo_qconst24 i1 [1, 22, 1, 64] scale=0.03331801 zero_point=-128
00000000: 8080 8080 8080 8080 8080 8080 8080 8080
00000010: 8080 8080 8080 8080 8080 8080 8080 8080
00000020: 8080 8080 8080 8080 8080 8080 8080 8080
00000030: 8080 8080 8080 8080 8080 8080 8080 8080
00000040: 8080 8080 8080 8080 8080 8080 8080 8080
00000050: 8080 8080 8080 8080 8080 8080 8080 8080
00000060: 8080 8080 8080 8080 8080 8080 8080 8080
00000070: 8080 8080 8080 8080 8080 8080 8080 8080
00000080: 8080 8080 8080 8080 8080 8080 8080 8080
00000090: 8080 8080 8080 8080 8080 8080 8080 8080
000000a0: 8080 8080 8080 8080 8080 8080 8080 8080
000000b0: 8080 8080 8080 8080 8080 8080 8080 8080
000000c0: 8080 8080 8080 8080 8080 8080 8080 8080
000000d0: 8080 8080 8080 8080 8080 8080 8080 8080
000000e0: 8080 8080 8080 8080 8080 8080 8080 8080
000000f0: 8080 8080 8080 8080 8080 8080 8080 8080
0.0 0.0 0.0 0.0 0.0 0.0 0.0 0.0
0.0 0.0 0.0 0.0 0.0 0.0 0.0 0.0
0.0 0.0 0.0 0.0 0.0 0.0 0.0 0.0
0.0 0.0 0.0 0.0 0.0 0.0 0.0 0.0
0.0 0.0 0.0 0.0 0.0 0.0 0.0 0.0
0.0 0.0 0.0 0.0 0.0 0.0 0.0 0.0
0.0 0.0 0.0 0.0 0.0 0.0 0.0 0.0
0.0 0.0 0.0 0.0 0.0 0.0 0.0 0.0
0.0 0.0 0.0 0.0 0.0 0.0 0.0 0.0
0.0 0.0 0.0 0.0 0.0 0.0 0.0 0.0
0.0 0.0 0.0 0.0 0.0 0.0 0.0 0.0
0.0 0.0 0.0 0.0 0.0 0.0 0.0 0.0
0.0 0.0 0.0 0.0 0.0 0.0 0.0 0.0
0.0 0.0 0.0 0.0 0.0 0.0 0.0 0.0
0.0 0.0 0.0 0.0 0.0 0.0 0.0 0.0
0.0 0.0 0.0 0.0 0.0 0.0 0.0 0.0
0.0 0.0 0.0 0.0 0.0 0.0 0.0 0.0
0.0 0.0 0.0 0.0 0.0 0.0 0.0 0.0
0.0 0.0 0.0 0.0 0.0 0.0 0.0 0.0
0.0 0.0 0.0 0.0 0.0 0.0 0.0 0.0
0.0 0.0 0.0 0.0 0.0 0.0 0.0 0.0
0.0 0.0 0.0 0.0 0.0 0.0 0.0 0.0
0.0 0.0 0.0 0.0 0.0 0.0 0.0 0.0
0.0 0.0 0.0 0.0 0.0 0.0 0.0 0.0
0.0 0.0 0.0 0.0 0.0 0.0 0.0 0.0
0.0 0.0 0.0 0.0 0.0 0.0 0.0 0.0
0.0 0.0 0.0 0.0 0.0 0.0 0.0 0.0
0.0 0.0 0.0 0.0 0.0 0.0 0.0 0.0
0.0 0.0 0.0 0.0 0.0 0.0 0.0 0.0
0.0 0.0 0.0 0.0 0.0 0.0 0.0 0.0
0.0 0.0 0.0 0.0 0.0 0.0 0.0 0.0
0.0 0.0 0.0 0.0 0.0 0.0 0.0 0.0

tfl.pseudo_qconst25 i1 [1, 16, 1, 64] scale=0.033356845 zero_point=-128
00000000: 8080 8080 8080 8080 8080 8080 8080 8080
00000010: 8080 8080 8080 8080 8080 8080 8080 8080
00000020: 8080 8080 8080 8080 8080 8080 8080 8080
00000030: 8080 8080 8080 8080 8080 8080 8080 8080
00000040: 8080 8080 8080 8080 8080 8080 8080 8080
00000050: 8080 8080 8080 8080 8080 8080 8080 8080
00000060: 8080 8080 8080 8080 8080 8080 8080 8080
00000070: 8080 8080 8080 8080 8080 8080 8080 8080
00000080: 8080 8080 8080 8080 8080 8080 8080 8080
00000090: 8080 8080 8080 8080 8080 8080 8080 8080
000000a0: 8080 8080 8080 8080 8080 8080 8080 8080
000000b0: 8080 8080 8080 8080 8080 8080 8080 8080
000000c0: 8080 8080 8080 8080 8080 8080 8080 8080
000000d0: 8080 8080 8080 8080 8080 8080 8080 8080
000000e0: 8080 8080 8080 8080 8080 8080 8080 8080
000000f0: 8080 8080 8080 8080 8080 8080 8080 8080
0.0 0.0 0.0 0.0 0.0 0.0 0.0 0.0
0.0 0.0 0.0 0.0 0.0 0.0 0.0 0.0
0.0 0.0 0.0 0.0 0.0 0.0 0.0 0.0
0.0 0.0 0.0 0.0 0.0 0.0 0.0 0.0
0.0 0.0 0.0 0.0 0.0 0.0 0.0 0.0
0.0 0.0 0.0 0.0 0.0 0.0 0.0 0.0
0.0 0.0 0.0 0.0 0.0 0.0 0.0 0.0
0.0 0.0 0.0 0.0 0.0 0.0 0.0 0.0
0.0 0.0 0.0 0.0 0.0 0.0 0.0 0.0
0.0 0.0 0.0 0.0 0.0 0.0 0.0 0.0
0.0 0.0 0.0 0.0 0.0 0.0 0.0 0.0
0.0 0.0 0.0 0.0 0.0 0.0 0.0 0.0
0.0 0.0 0.0 0.0 0.0 0.0 0.0 0.0
0.0 0.0 0.0 0.0 0.0 0.0 0.0 0.0
0.0 0.0 0.0 0.0 0.0 0.0 0.0 0.0
0.0 0.0 0.0 0.0 0.0 0.0 0.0 0.0
0.0 0.0 0.0 0.0 0.0 0.0 0.0 0.0
0.0 0.0 0.0 0.0 0.0 0.0 0.0 0.0
0.0 0.0 0.0 0.0 0.0 0.0 0.0 0.0
0.0 0.0 0.0 0.0 0.0 0.0 0.0 0.0
0.0 0.0 0.0 0.0 0.0 0.0 0.0 0.0
0.0 0.0 0.0 0.0 0.0 0.0 0.0 0.0
0.0 0.0 0.0 0.0 0.0 0.0 0.0 0.0
0.0 0.0 0.0 0.0 0.0 0.0 0.0 0.0
0.0 0.0 0.0 0.0 0.0 0.0 0.0 0.0
0.0 0.0 0.0 0.0 0.0 0.0 0.0 0.0
0.0 0.0 0.0 0.0 0.0 0.0 0.0 0.0
0.0 0.0 0.0 0.0 0.0 0.0 0.0 0.0
0.0 0.0 0.0 0.0 0.0 0.0 0.0 0.0
0.0 0.0 0.0 0.0 0.0 0.0 0.0 0.0
0.0 0.0 0.0 0.0 0.0 0.0 0.0 0.0
0.0 0.0 0.0 0.0 0.0 0.0 0.0 0.0

tfl.pseudo_qconst26 i1 [1, 2, 1, 40] scale=0.101960786 zero_point=-128
00000000: 8080 8080 8080 8080 8080 8080 8080 8080
00000010: 8080 8080 8080 8080 8080 8080 8080 8080
00000020: 8080 8080 8080 8080 8080 8080 8080 8080
00000030: 8080 8080 8080 8080 8080 8080 8080 8080
00000040: 8080 8080 8080 8080 8080 8080 8080 8080
0.0 0.0 0.0 0.0 0.0 0.0 0.0 0.0
0.0 0.0 0.0 0.0 0.0 0.0 0.0 0.0
0.0 0.0 0.0 0.0 0.0 0.0 0.0 0.0
0.0 0.0 0.0 0.0 0.0 0.0 0.0 0.0
0.0 0.0 0.0 0.0 0.0 0.0 0.0 0.0
0.0 0.0 0.0 0.0 0.0 0.0 0.0 0.0
0.0 0.0 0.0 0.0 0.0 0.0 0.0 0.0
0.0 0.0 0.0 0.0 0.0 0.0 0.0 0.0
0.0 0.0 0.0 0.0 0.0 0.0 0.0 0.0
0.0 0.0 0.0 0.0 0.0 0.0 0.0 0.0

tfl.pseudo_qconst27 i1 [1, 4, 1, 32] scale=0.37413317 zero_point=-128
00000000: 8080 8080 8080 8080 8080 8080 8080 8080
00000010: 8080 8080 8080 8080 8080 8080 8080 8080
00000020: 8080 8080 8080 8080 8080 8080 8080 8080
00000030: 8080 8080 8080 8080 8080 8080 8080 8080
00000040: 8080 8080 8080 8080 8080 8080 8080 8080
00000050: 8080 8080 8080 8080 8080 8080 8080 8080
00000060: 8080 8080 8080 8080 8080 8080 8080 8080
00000070: 8080 8080 8080 8080 8080 8080 8080 8080
0.0 0.0 0.0 0.0 0.0 0.0 0.0 0.0
0.0 0.0 0.0 0.0 0.0 0.0 0.0 0.0
0.0 0.0 0.0 0.0 0.0 0.0 0.0 0.0
0.0 0.0 0.0 0.0 0.0 0.0 0.0 0.0
0.0 0.0 0.0 0.0 0.0 0.0 0.0 0.0
0.0 0.0 0.0 0.0 0.0 0.0 0.0 0.0
0.0 0.0 0.0 0.0 0.0 0.0 0.0 0.0
0.0 0.0 0.0 0.0 0.0 0.0 0.0 0.0
0.0 0.0 0.0 0.0 0.0 0.0 0.0 0.0
0.0 0.0 0.0 0.0 0.0 0.0 0.0 0.0
0.0 0.0 0.0 0.0 0.0 0.0 0.0 0.0
0.0 0.0 0.0 0.0 0.0 0.0 0.0 0.0
0.0 0.0 0.0 0.0 0.0 0.0 0.0 0.0
0.0 0.0 0.0 0.0 0.0 0.0 0.0 0.0
0.0 0.0 0.0 0.0 0.0 0.0 0.0 0.0
0.0 0.0 0.0 0.0 0.0 0.0 0.0 0.0

tfl.pseudo_qconst28 i1 [1, 10, 1, 64] scale=0.030585326 zero_point=-128
00000000: 8080 8080 8080 8080 8080 8080 8080 8080
00000010: 8080 8080 8080 8080 8080 8080 8080 8080
00000020: 8080 8080 8080 8080 8080 8080 8080 8080
00000030: 8080 8080 8080 8080 8080 8080 8080 8080
00000040: 8080 8080 8080 8080 8080 8080 8080 8080
00000050: 8080 8080 8080 8080 8080 8080 8080 8080
00000060: 8080 8080 8080 8080 8080 8080 8080 8080
00000070: 8080 8080 8080 8080 8080 8080 8080 8080
00000080: 8080 8080 8080 8080 8080 8080 8080 8080
00000090: 8080 8080 8080 8080 8080 8080 8080 8080
000000a0: 8080 8080 8080 8080 8080 8080 8080 8080
000000b0: 8080 8080 8080 8080 8080 8080 8080 8080
000000c0: 8080 8080 8080 8080 8080 8080 8080 8080
000000d0: 8080 8080 8080 8080 8080 8080 8080 8080
000000e0: 8080 8080 8080 8080 8080 8080 8080 8080
000000f0: 8080 8080 8080 8080 8080 8080 8080 8080
0.0 0.0 0.0 0.0 0.0 0.0 0.0 0.0
0.0 0.0 0.0 0.0 0.0 0.0 0.0 0.0
0.0 0.0 0.0 0.0 0.0 0.0 0.0 0.0
0.0 0.0 0.0 0.0 0.0 0.0 0.0 0.0
0.0 0.0 0.0 0.0 0.0 0.0 0.0 0.0
0.0 0.0 0.0 0.0 0.0 0.0 0.0 0.0
0.0 0.0 0.0 0.0 0.0 0.0 0.0 0.0
0.0 0.0 0.0 0.0 0.0 0.0 0.0 0.0
0.0 0.0 0.0 0.0 0.0 0.0 0.0 0.0
0.0 0.0 0.0 0.0 0.0 0.0 0.0 0.0
0.0 0.0 0.0 0.0 0.0 0.0 0.0 0.0
0.0 0.0 0.0 0.0 0.0 0.0 0.0 0.0
0.0 0.0 0.0 0.0 0.0 0.0 0.0 0.0
0.0 0.0 0.0 0.0 0.0 0.0 0.0 0.0
0.0 0.0 0.0 0.0 0.0 0.0 0.0 0.0
0.0 0.0 0.0 0.0 0.0 0.0 0.0 0.0
0.0 0.0 0.0 0.0 0.0 0.0 0.0 0.0
0.0 0.0 0.0 0.0 0.0 0.0 0.0 0.0
0.0 0.0 0.0 0.0 0.0 0.0 0.0 0.0
0.0 0.0 0.0 0.0 0.0 0.0 0.0 0.0
0.0 0.0 0.0 0.0 0.0 0.0 0.0 0.0
0.0 0.0 0.0 0.0 0.0 0.0 0.0 0.0
0.0 0.0 0.0 0.0 0.0 0.0 0.0 0.0
0.0 0.0 0.0 0.0 0.0 0.0 0.0 0.0
0.0 0.0 0.0 0.0 0.0 0.0 0.0 0.0
0.0 0.0 0.0 0.0 0.0 0.0 0.0 0.0
0.0 0.0 0.0 0.0 0.0 0.0 0.0 0.0
0.0 0.0 0.0 0.0 0.0 0.0 0.0 0.0
0.0 0.0 0.0 0.0 0.0 0.0 0.0 0.0
0.0 0.0 0.0 0.0 0.0 0.0 0.0 0.0
0.0 0.0 0.0 0.0 0.0 0.0 0.0 0.0
0.0 0.0 0.0 0.0 0.0 0.0 0.0 0.0

tfl.pseudo_qconst29 i1 [1, 14, 1, 64] scale=0.033455458 zero_point=-128
00000000: 8080 8080 8080 8080 8080 8080 8080 8080
00000010: 8080 8080 8080 8080 8080 8080 8080 8080
00000020: 8080 8080 8080 8080 8080 8080 8080 8080
00000030: 8080 8080 8080 8080 8080 8080 8080 8080
00000040: 8080 8080 8080 8080 8080 8080 8080 8080
00000050: 8080 8080 8080 8080 8080 8080 8080 8080
00000060: 8080 8080 8080 8080 8080 8080 8080 8080
00000070: 8080 8080 8080 8080 8080 8080 8080 8080
00000080: 8080 8080 8080 8080 8080 8080 8080 8080
00000090: 8080 8080 8080 8080 8080 8080 8080 8080
000000a0: 8080 8080 8080 8080 8080 8080 8080 8080
000000b0: 8080 8080 8080 8080 8080 8080 8080 8080
000000c0: 8080 8080 8080 8080 8080 8080 8080 8080
000000d0: 8080 8080 8080 8080 8080 8080 8080 8080
000000e0: 8080 8080 8080 8080 8080 8080 8080 8080
000000f0: 8080 8080 8080 8080 8080 8080 8080 8080
0.0 0.0 0.0 0.0 0.0 0.0 0.0 0.0
0.0 0.0 0.0 0.0 0.0 0.0 0.0 0.0
0.0 0.0 0.0 0.0 0.0 0.0 0.0 0.0
0.0 0.0 0.0 0.0 0.0 0.0 0.0 0.0
0.0 0.0 0.0 0.0 0.0 0.0 0.0 0.0
0.0 0.0 0.0 0.0 0.0 0.0 0.0 0.0
0.0 0.0 0.0 0.0 0.0 0.0 0.0 0.0
0.0 0.0 0.0 0.0 0.0 0.0 0.0 0.0
0.0 0.0 0.0 0.0 0.0 0.0 0.0 0.0
0.0 0.0 0.0 0.0 0.0 0.0 0.0 0.0
0.0 0.0 0.0 0.0 0.0 0.0 0.0 0.0
0.0 0.0 0.0 0.0 0.0 0.0 0.0 0.0
0.0 0.0 0.0 0.0 0.0 0.0 0.0 0.0
0.0 0.0 0.0 0.0 0.0 0.0 0.0 0.0
0.0 0.0 0.0 0.0 0.0 0.0 0.0 0.0
0.0 0.0 0.0 0.0 0.0 0.0 0.0 0.0
0.0 0.0 0.0 0.0 0.0 0.0 0.0 0.0
0.0 0.0 0.0 0.0 0.0 0.0 0.0 0.0
0.0 0.0 0.0 0.0 0.0 0.0 0.0 0.0
0.0 0.0 0.0 0.0 0.0 0.0 0.0 0.0
0.0 0.0 0.0 0.0 0.0 0.0 0.0 0.0
0.0 0.0 0.0 0.0 0.0 0.0 0.0 0.0
0.0 0.0 0.0 0.0 0.0 0.0 0.0 0.0
0.0 0.0 0.0 0.0 0.0 0.0 0.0 0.0
0.0 0.0 0.0 0.0 0.0 0.0 0.0 0.0
0.0 0.0 0.0 0.0 0.0 0.0 0.0 0.0
0.0 0.0 0.0 0.0 0.0 0.0 0.0 0.0
0.0 0.0 0.0 0.0 0.0 0.0 0.0 0.0
0.0 0.0 0.0 0.0 0.0 0.0 0.0 0.0
0.0 0.0 0.0 0.0 0.0 0.0 0.0 0.0
0.0 0.0 0.0 0.0 0.0 0.0 0.0 0.0
0.0 0.0 0.0 0.0 0.0 0.0 0.0 0.0
